app/src/main/ml/model.tflite (tflite, 653232 bytes, 10 tensors)

sequential/conv2d/Relu;sequential/conv2d/BiasAdd;sequential/conv2d/Conv2D;sequential/conv2d/BiasAdd/ReadVariableOp f4 [32, 3, 3, 3]
0	0xb97056b1	-0.00022920479
1	0x3a19adea	0.0005862402
2	0x3a08cfac	0.0005218934
3	0xba3cee77	-0.0007207165
4	0xb97bcaec	-0.0002401282
5	0x39f425f4	0.00046567584
6	0xba16ea61	-0.0005756971
7	0x39dad975	0.00041742218
8	0xb9dd5e4f	-0.0004222267
9	0x3a1d2194	0.0005994078
10	0x395a6af2	0.0002082994
11	0x39104f3c	0.00013762427
12	0xb9cde4a3	-0.00039270995
13	0x3913c614	0.00014092802
14	0xb992fccf	-0.00028035647
15	0xb90bf849	-0.00013348566
16	0x39cfcbba	0.00039633905
17	0x39f386bd	0.0004644896
18	0x393e22ba	0.00018132749
19	0x3a0a0019	0.0005264297
20	0x39bdff06	0.00036238896
21	0xb9d443a5	-0.0004048619
22	0xba03f755	-0.0005034109
23	0x380982de	3.2785225e-05
24	0xb962c483	-0.00021626246
25	0xb972047b	-0.00023080588
26	0x3a058474	0.00050932844
27	0x3892b520	6.99556e-05
28	0x3a5afba5	0.0008353538
29	0x3a5f4a81	0.0008517877
30	0x3a5713c3	0.0008204544
31	0x3a285aac	0.00064222026
32	0x3a21e21c	0.00061753555
33	0x38f78107	0.00011801911
34	0x3917950c	0.00014456006
35	0x3a3f8dc0	0.0007307194
36	0xba127f06	-0.0005588386
37	0xb99ac698	-0.00029521133
38	0xb956630e	-0.00020445531
39	0xba2ead1f	-0.00066633703
40	0x393cb085	0.00017994836
41	0x393646d9	0.00017383265
42	0xb9be51b9	-0.00036300512
43	0xba159d00	-0.0005707294
44	0xb9d4d8d1	-0.00040597332
45	0xb9b254e6	-0.0003401406
46	0xb9f0c735	-0.00045924788
47	0xba4a7b92	-0.0007724102
48	0xb9b3534c	-0.00034203602
49	0xba0d4a45	-0.000538979
50	0xba2c904f	-0.0006582783
51	0x392e2987	0.00016609403
52	0xb96cb912	-0.00022575658
53	0x39867f57	0.00025653347
54	0xba09c5bd	-0.00052556006
55	0x373b380c	1.1159118e-05
56	0xb9987716	-0.00029080425
57	0x396c390d	0.00022527967
58	0xba0986de	-0.0005246232
59	0xb97909d8	-0.00023750158
60	0xb9062704	-0.0001279377
61	0xb94cfb19	-0.00019548497
62	0x398aa9e1	0.0002644798
63	0xb964a193	-0.00021803966
64	0x3880d707	6.1435676e-05
65	0xba092bd4	-0.0005232666
66	0xb9cdf849	-0.00039285634
67	0xb912f742	-0.00014015756
68	0xb9fa6fef	-0.00047767113
69	0xb9876b58	-0.00025829184
70	0x39c01b83	0.00036641592
71	0xb9b45881	-0.00034398216
72	0xb95241ff	-0.00020051746
73	0x36760fc9	3.6666045e-06
74	0xb9741e48	-0.00023280934
75	0x39a55f27	0.00031542146
76	0xba212010	-0.000614644
77	0x398d9987	0.00027008003
78	0x3920df9a	0.00015342087
79	0x38f4738a	0.000116563475
80	0xb961c77d	-0.00021531987
81	0x3a793090	0.00095058326
82	0x3a52795b	0.00080289476
83	0x3a141b8c	0.0005649857
84	0x3972dfc5	0.00023162279
85	0x3a0b9080	0.00053239614
86	0x39f65325	0.00046982724
87	0x39cc4547	0.00038961528
88	0x38f40585	0.00011635855
89	0xb8dbaecb	-0.000104752915
90	0x38c27ca3	9.273856e-05
91	0xb918c051	-0.00014567493
92	0x3741e6b2	1.1557409e-05
93	0x3a19d462	0.00058681343
94	0x39048370	0.00012637465
95	0xb9679849	-0.00022086607
96	0x3827c5a0	3.9999955e-05
97	0xb7e01875	-2.671427e-05
98	0xb9ea4d31	-0.0004468947
99	0xba573126	-0.0008208923
100	0xba4995db	-0.00076898717
101	0xba314a3e	-0.0006763077
102	0xba2dc58b	-0.00066288625
103	0xba4a617b	-0.0007720214
104	0xb9e71987	-0.00044078773
105	0x387d3398	6.036795e-05
106	0x37d40418	2.5274276e-05
107	0xb94b32dd	-0.00019378537
108	0xb99a0bae	-0.0002938187
109	0xba611c19	-0.0008587256
110	0xb9da7efd	-0.00041674814
111	0xb9b7f0e1	-0.0003508395
112	0xb9c876a5	-0.0003823537
113	0xba86d3de	-0.001028653
114	0x38dc2a79	0.000104983286
115	0xba380a95	-0.000702062
116	0xba327bda	-0.00068086165
117	0x3944a184	0.00018752186
118	0x3a2f11b4	0.0006678358
119	0x399aaf86	0.00029503944
120	0xb98f01f8	-0.00027276552
121	0x36f39902	7.259777e-06
122	0x3a24db71	0.0006288803
123	0xb9dd3801	-0.0004219413
124	0xb92ce48d	-0.0001648834
125	0xb91729ff	-0.00014416127
126	0xb8d4c851	-0.000101462596
127	0x3a3d04f5	0.00072105165
128	0x39c9e164	0.00038505637
129	0x399511a2	0.00028432632
130	0x3a47c4d6	0.00076205784
131	0xb9189378	-0.00014550786
132	0x39a25504	0.0003096239
133	0x39f818ad	0.0004732063
134	0x3a310ca4	0.0006753898
135	0x383fac0e	4.5698187e-05
136	0x39a9ef79	0.00032412613
137	0x3a4bf887	0.0007780869
138	0xb9c8cccf	-0.00038299567
139	0xb9960a7e	-0.00028618047
140	0xb9ae7648	-0.00033275993
141	0xba1a45c8	-0.0005885032
142	0x39e987d0	0.0004454241
143	0xb9fa99a0	-0.00047798175
144	0x39a4b842	0.000314178
145	0x3925e159	0.00015819575
146	0x39dccad9	0.00042112803
147	0xba20b7bc	-0.0006130894
148	0x39455593	0.00018819263
149	0x38f3561b	0.00011603181
150	0xba130261	-0.00056079595
151	0x39105520	0.00013764622
152	0xb9f597c7	-0.00046843124
153	0x3a29f077	0.00064826704
154	0x3a171bd5	0.000576434
155	0x3a473017	0.00075984135
156	0xb9ae2b41	-0.00033220093
157	0x3999b30e	0.0002931584
158	0xb834d9ee	-4.3118307e-05
159	0xb9a21542	-0.00030914886
160	0xb864bdb8	-5.4536125e-05
161	0xb92ebaa9	-0.0001666347
162	0x3a3ad9c3	0.0007127786
163	0xb931e82b	-0.00016966525
164	0xb902e2ea	-0.00012482298
165	0x38ac2413	8.2083185e-05
166	0x39f2f52c	0.00046340504
167	0x39b60088	0.0003471414
168	0xb9deb86d	-0.00042480548
169	0xba361b48	-0.0006946814
170	0xba05d0f7	-0.00051046856
171	0x39c76845	0.00038033925
172	0x39ac3894	0.0003284855
173	0x3a4439a5	0.00074853963
174	0x36e325ea	6.769541e-06
175	0xb80e14ed	-3.3874927e-05
176	0x39321f55	0.00016987075
177	0xba2cbb53	-0.0006589193
178	0xba2d84ef	-0.0006619235
179	0x38cf8d88	9.8968914e-05
180	0x3a1e419e	0.00060369994
181	0x3a58d7af	0.00082718855
182	0x393e7514	0.00018163427
183	0x3a2d284b	0.00066054304
184	0xb94366e4	-0.00018634979
185	0x387d5b18	6.0404738e-05
186	0xba399ec7	-0.00070808496
187	0xba00f656	-0.00049195194
188	0xba688d82	-0.0008871184
189	0x3a00f034	0.00049186056
190	0x3a178e86	0.00057814305
191	0x3a5c326f	0.0008399849
192	0x39b8b179	0.00035227442
193	0x39abbef4	0.00032757933
194	0xb9db414a	-0.0004181958
195	0xb9447070	-0.00018733903
196	0x39a47552	0.00031367928
197	0xb896d2ee	-7.191846e-05
198	0x3a152f57	0.0005690953
199	0x3922884f	0.00015500303
200	0x39dc5f43	0.00042032645
201	0xb8124208	-3.487061e-05
202	0xba3425c5	-0.0006872083
203	0xb7f5f657	-2.9320987e-05
204	0xba37aaf4	-0.000700637
205	0xba1895b6	-0.00058206485
206	0xb8635edb	-5.420936e-05
207	0x39899cef	0.000262476
208	0x389759c3	7.2169605e-05
209	0x3a044fa6	0.0005047269
210	0xba153895	-0.00056923303
211	0x39b368f0	0.00034219725
212	0xb98e7cb8	-0.00027177273
213	0xba5330b5	-0.0008056269
214	0x39527c25	0.00020073408
215	0xb960b931	-0.00021431294
216	0x39b59e28	0.00034640846
217	0x3a4bbf59	0.00077723485
218	0x3a341d20	0.0006870795
219	0xb988ecac	-0.00026116276
220	0xb8b50480	-8.631591e-05
221	0xba01476c	-0.0004931602
222	0xb9f2ebf9	-0.0004633365
223	0xba229057	-0.0006201318
224	0xb945a9b6	-0.00018850606
225	0x39cc67ae	0.0003898716
226	0x3a1a12f1	0.0005877456
227	0x392adb9d	0.00016294276
228	0x38e85d4b	0.00011079999
229	0xba16d343	-0.00057535263
230	0xb9bb60a3	-0.0003573942
231	0xb97b6738	-0.00023975677
232	0x3928133c	0.00016028894
233	0xba4f22b4	-0.00079015945
234	0x3a1d4487	0.0005999286
235	0x3a6354ba	0.0008671988
236	0x3a6161bf	0.0008597634
237	0x3952a58d	0.00020088833
238	0xba240d59	-0.00062580925
239	0xb99fe7c2	-0.00030499516
240	0xba1fa6d6	-0.0006090229
241	0xb99970e2	-0.00029266538
242	0xb9d3d2de	-0.00040402164
243	0x39358060	0.00017309329
244	0xba1163e5	-0.00055461965
245	0x39827dbc	0.00024889212
246	0xba377f75	-0.00069998886
247	0xba8a99f6	-0.0010574448
248	0xba72af1e	-0.0009257662
249	0x39dfd089	0.00042689245
250	0x38dace23	0.00010433446
251	0xb9df8f3e	-0.00042640598
252	0xb92a3ad9	-0.00016234386
253	0x3984956d	0.00025288333
254	0x38b4227a	8.5894906e-05
255	0x3930d469	0.00016863797

sequential/conv2d/BiasAdd/ReadVariableOp f4 [32]
0	0x3a106082	0.0005507545
1	0x3da8b1a6	0.08237009
2	0xbca0d409	-0.019632356
3	0x3befa01c	0.0073127877
4	0x3d258092	0.040405817
5	0x3ce0ea11	0.027455362
6	0x3c5ea2bb	0.013588603
7	0xbb53c16d	-0.0032311336
8	0x3dc04be5	0.09389476
9	0xbcce8abf	-0.025212644
10	0x3cdfcc45	0.027319083
11	0x3de5cd98	0.112208545
12	0x3e175d89	0.14781775
13	0x3c8f19d3	0.017468369
14	0x3e6c5fac	0.23083371
15	0x3d4b5808	0.0496445
16	0x3e322a5f	0.17398976
17	0xbd97ab94	-0.07405773
18	0x3d0986d1	0.033575837
19	0x3d02ad29	0.03190342
20	0xbcc02bc3	-0.023458367
21	0xbe51022c	-0.20410985
22	0xba7b804f	-0.00095940096
23	0xbe0187c3	-0.12649445
24	0x3ccb898e	0.024845865
25	0x3dd94119	0.106081195
26	0x3d070476	0.03296324
27	0x3c89d4b8	0.016825065
28	0xbd17a7f7	-0.037025418
29	0x3da5f447	0.08103233
30	0xbde13916	-0.109972164
31	0xbdc15d0a	-0.09441574

sequential/conv2d_1/BiasAdd/ReadVariableOp f4 [64]
0	0xbdfd84c3	-0.12378838
1	0xbd4d8ef4	-0.05018516
2	0x3c9b9403	0.018991476
3	0xbca199df	-0.019726692
4	0x3d601a12	0.054712363
5	0x3c42d88d	0.01189245
6	0x3c112368	0.008858539
7	0xbc4b52f3	-0.012409913
8	0xbc3d72a7	-0.01156298
9	0x3d0076ff	0.031363484
10	0x3e0a682e	0.13516304
11	0x3ccbd0d5	0.024879852
12	0xbcd57abd	-0.026059503
13	0xbd076cc7	-0.033062723
14	0xbcbdc25d	-0.023163969
15	0x3bb96d4e	0.005658782
16	0xbcb258df	-0.021770893
17	0x3bf21612	0.007387885
18	0x3c98c1b5	0.018647054
19	0x3c6e815c	0.014557209
20	0x3d048ee1	0.032362822
21	0xbcc70b34	-0.024297334
22	0x3c58af8b	0.013225446
23	0xbd7517a9	-0.059837017
24	0xbcad4077	-0.021148903
25	0xbc2ebdcb	-0.010665367
26	0xbd5a98b8	-0.0533683
27	0xbd5ac5c0	-0.053411245
28	0x3e4fdc32	0.20298842
29	0x3d64a500	0.05582142
30	0x3c4621ae	0.012092991
31	0x3c0cbc75	0.0085898535
32	0x3d0f7937	0.03502771
33	0xbcaa4b44	-0.020787843
34	0xbd94ef28	-0.07272178
35	0xbd6d5d45	-0.057950277
36	0xbd7c41c7	-0.061586168
37	0xbc8b962a	-0.017039377
38	0x3cc9f3c6	0.024652373
39	0x3d0fad8b	0.035077613
40	0xbc0af5b1	-0.008481429
41	0xbd1a5bb7	-0.037685122
42	0x3de5baf8	0.11217302
43	0x3cfabfe2	0.030609075
44	0xbc8975b6	-0.016779762
45	0x3c154792	0.009111302
46	0xbd0333a5	-0.032031674
47	0xbcf111a0	-0.02942735
48	0xbd322a1a	-0.043497182
49	0x3a0437a8	0.0005043694
50	0xbcf452b7	-0.029824598
51	0x3cfb7f6b	0.030700406
52	0xbd5f874a	-0.05457238
53	0xbcacf02c	-0.021110617
54	0xbd7f6d6b	-0.06236021
55	0x3c2c1eca	0.010505388
56	0xbb821233	-0.0039694547
57	0x3d6ced32	0.057843395
58	0x3b80164c	0.003908908
59	0xbb8269b7	-0.0039798873
60	0x3d9670da	0.073457435
61	0x3d0071e3	0.03135861
62	0xbc4ffaeb	-0.012694101
63	0x3a713cc9	0.0009202478

sequential/conv2d_2/BiasAdd/ReadVariableOp f4 [128]
0	0xbc21f039	-0.009883934
1	0xbc0acb63	-0.008471343
2	0xbbf1211b	-0.007358683
3	0xbc126ff7	-0.008937827
4	0xbd90b9f6	-0.07066719
5	0xbd10850e	-0.03528314
6	0xbc17f92c	-0.009275716
7	0xbd76a41a	-0.060215093
8	0xbd8cad22	-0.0686896
9	0xbdb74f5a	-0.08950682
10	0x3c86cebb	0.016455999
11	0x3c55d692	0.013051646
12	0xbc2cf3dd	-0.010556188
13	0xbdd72f57	-0.10507076
14	0xbc9819aa	-0.018566925
15	0xbc5b6d62	-0.013392778
16	0xbd2dc115	-0.042420465
17	0xbd75de7c	-0.06002663
18	0x3d128913	0.035775255
19	0xbbbe6152	-0.0058099413
20	0xbccc75eb	-0.024958571
21	0xbbec9975	-0.007220442
22	0xbc86796c	-0.01641532
23	0xbd2fe61f	-0.04294407
24	0xbd4f824a	-0.050661363
25	0xbc9a434f	-0.018830923
26	0x3bb9f26e	0.005674652
27	0xbca6a0cd	-0.020340348
28	0x3c9237fa	0.017848957
29	0x3d5f0642	0.054449327
30	0xbc277756	-0.010221323
31	0xbd496351	-0.04916698
32	0xbc9d720d	-0.019219423
33	0xbc22668f	-0.009912147
34	0xbd411bce	-0.047145657
35	0xbcef370b	-0.029201051
36	0xbc19c1e6	-0.009384608
37	0x3cd26044	0.025680669
38	0x3d9559dd	0.07292531
39	0xbcecf473	-0.028925156
40	0xbd400bf3	-0.046886396
41	0x3b842d11	0.0040336926
42	0x3c37f8aa	0.01122872
43	0xbc0066c6	-0.007837003
44	0xbc40b426	-0.011761701
45	0xbdea7b61	-0.11449314
46	0xbc280afb	-0.010256524
47	0xbced1674	-0.02894137
48	0xbc820c63	-0.015875047
49	0xbc3a4425	-0.011368786
50	0x3d154e9b	0.036451917
51	0xbc4fac78	-0.012675397
52	0xbb47f169	-0.0030508882
53	0xba8a8045	-0.0010566792
54	0x3d6d482e	0.057930164
55	0xbba61acd	-0.005069113
56	0xbd1d848d	-0.03845649
57	0x3aa08f46	0.001224973
58	0x3ac362ae	0.0014906728
59	0xbca9f5e4	-0.020747133
60	0xbcef6825	-0.029224465
61	0xbb4dabad	-0.0031382844
62	0xbc2fc363	-0.010727736
63	0xbc07ba67	-0.008284188
64	0xbd429b64	-0.047511473
65	0x3d6aa41f	0.057285424
66	0xbc10aefa	-0.00883078
67	0xbcd09a51	-0.025464209
68	0xbb994482	-0.004677356
69	0x3cc194a6	0.023630451
70	0xbc17edb8	-0.009272985
71	0x3c6f8db3	0.014621186
72	0x3b1c4b39	0.0023848547
73	0xbd322c94	-0.043499544
74	0x3c08459b	0.0083173765
75	0xbd26fc22	-0.040767796
76	0xbcd4fb45	-0.02599872
77	0xbc526f96	-0.012843987
78	0xba971d5b	-0.0011529134
79	0xbd42105f	-0.047378894
80	0xbc25bb49	-0.010115453
81	0xbd21f76d	-0.039542604
82	0xbc6beffb	-0.0144004775
83	0xbcbd19c4	-0.023083575
84	0xbd32b8d9	-0.043633316
85	0xbcb658a9	-0.022259073
86	0xbc2bc80d	-0.010484708
87	0x3d085bca	0.033290662
88	0x3d897f44	0.06713727
89	0xbc9197d9	-0.017772602
90	0x3d4e2429	0.050327454
91	0xbcd7d34f	-0.026345877
92	0x3be40ba1	0.006959394
93	0xbc1f68bf	-0.009729563
94	0xbc8569eb	-0.016285857
95	0xbc2d7f9d	-0.010589507
96	0xbd70ccb4	-0.05878897
97	0xbcd30d26	-0.025763106
98	0xbd55015e	-0.052003257
99	0xbc9223e6	-0.017839383
100	0xbbed9afe	-0.0072511425
101	0x3d52a65e	0.05142819
102	0xbd66f89e	-0.056389444
103	0xbc292991	-0.010324852
104	0xbc37a282	-0.0112081785
105	0xbc434eb7	-0.011920623
106	0xbc863984	-0.016384847
107	0xbc9dea20	-0.019276679
108	0xbc033a1d	-0.008009461
109	0xbd9895de	-0.0745046
110	0xbc75fdec	-0.015014153
111	0x3ca620e5	0.020279357
112	0xbbb03e58	-0.0053785257
113	0x3cfac596	0.030611794
114	0xbc868f5b	-0.01642578
115	0x3b94b646	0.0045383302
116	0xbd63a074	-0.055572942
117	0xbc5a7a78	-0.013334863
118	0xbc9ee6a1	-0.019397082
119	0xbcebb7eb	-0.028774222
120	0xbce4eddc	-0.027945451
121	0xbc22f1ad	-0.009945315
122	0xb9f806a7	-0.00047307202
123	0xbcc3a752	-0.023883495
124	0xbcf1a451	-0.029497297
125	0x3c8a95c7	0.016917123
126	0xbba6d843	-0.0050916984
127	0xbca806ec	-0.020511113

sequential/conv2d_1/Conv2D f4 [64, 3, 3, 32]
0	0xbd854381	-0.06507016
1	0x3e936cf7	0.2879407
2	0xbc78e79a	-0.015191937
3	0x3e7b9569	0.24568714
4	0x3e99e83e	0.3006
5	0xbdf5b2e0	-0.11997008
6	0xbd26c973	-0.04071946
7	0xbb36076b	-0.0027775418
8	0xbd7b2593	-0.06131513
9	0x3d87357e	0.06602
10	0xbe0f3f6b	-0.13989036
11	0xbe63a346	-0.22230253
12	0x3e79b247	0.24384414
13	0xbda099fa	-0.07841869
14	0x3dfa0b47	0.12209182
15	0x3ec136e1	0.37737182
16	0xbe7e4a07	-0.24832927
17	0x3bb3c25e	0.005485817
18	0xbe59ebc6	-0.21281347
19	0xbcc467e5	-0.023975322
20	0xbb494ff8	-0.003071783
21	0x3cfaf53b	0.030634513
22	0x3d2359f9	0.039880726
23	0xb9ac9a2f	-0.00032921272
24	0xbd3a3c47	-0.04546764
25	0xbe4973c0	-0.19673061
26	0xbde68b78	-0.1125707
27	0xbd45be47	-0.048277166
28	0x3c0f049a	0.008729124
29	0x3d69bd76	0.05706545
30	0x3cf872fa	0.030328263
31	0x3c8cc947	0.01718582
32	0xbdffc7f4	-0.1248931
33	0x3eaeb90f	0.34125564
34	0xbb828b80	-0.003983915
35	0x3e94ef4b	0.29088816
36	0x3eedee2b	0.4647077
37	0x3e101176	0.14069161
38	0x3e053dd3	0.13011865
39	0x3cb83ade	0.022489008
40	0x3e563223	0.20917563
41	0x3e4356b1	0.19076039
42	0x3d4eeb9d	0.050517667
43	0xbdd19999	-0.102343746
44	0x3e9d6a37	0.30745098
45	0xbbd70733	-0.0065621375
46	0x3e8e00c4	0.2773496
47	0x3e980f38	0.2969911
48	0x3da7aced	0.0818728
49	0xbdaa246a	-0.08307727
50	0xbd95adec	-0.073085636
51	0xbdf8a494	-0.12140766
52	0x3cb417c9	0.021983998
53	0xbd4b6abe	-0.049662344
54	0x3c1ca9a4	0.00956193
55	0xbe1ee0ec	-0.15515488
56	0x3d58d1c4	0.052934423
57	0x3c11976b	0.0088861985
58	0xbdd6e5a5	-0.1049302
59	0xbd907507	-0.07053571
60	0x3d9a3b40	0.07530832
61	0x3e9f9c05	0.3117372
62	0xbdda9937	-0.10673755
63	0xbe378194	-0.17920524
64	0xbe518477	-0.20460688
65	0x3e0a2fb8	0.13494766
66	0x3da44497	0.08020895
67	0x3e76a762	0.24087289
68	0x3e9f5fc7	0.3112776
69	0x3d0f66e5	0.035010237
70	0x3bc78ed0	0.0060900226
71	0xbd571c17	-0.052517023
72	0xbbf359d1	-0.0074264784
73	0x3db9a327	0.09064322
74	0xbdafac96	-0.0857784
75	0xb8a321a0	-7.778709e-05
76	0x3df6ade5	0.120448865
77	0xbd155bdd	-0.03646456
78	0x3cf7be47	0.030242098
79	0x3ec5e102	0.3864823
80	0x3cd78e90	0.026313096
81	0x3ca7a239	0.020463096
82	0x3e04bb5c	0.12962097
83	0x3db1ffa2	0.08691336
84	0x3d6c4f30	0.057692707
85	0xbd8a3a4a	-0.06749399
86	0xbc8aa0c5	-0.016922364
87	0xbe382842	-0.17984107
88	0xbe3b7628	-0.18306792
89	0xbe309608	-0.17244732
90	0x3d9cde6e	0.076596126
91	0xbe4e97bc	-0.2017507
92	0x3cbc5663	0.022990411
93	0x3e154675	0.14577658
94	0xbd7a85b4	-0.061162665
95	0x3d27187e	0.040794842
96	0xbdc2ab37	-0.09505313
97	0x3dc8d477	0.098061495
98	0xbd218d2e	-0.03944128
99	0x3e11d560	0.14241552
100	0x3e8e3218	0.27772593
101	0xbdad77f2	-0.084701434
102	0x3dd42413	0.10358443
103	0xbc25c3fd	-0.010117528
104	0xbdff711f	-0.12472748
105	0x3e6f73c8	0.23384011
106	0xbdd9e8b5	-0.106400885
107	0xbe0604ba	-0.1308774
108	0x3dfeca1f	0.12440895
109	0xbd874219	-0.06604404
110	0x3ce04c8c	0.02738025
111	0x3dab9015	0.08377091
112	0xbe06e0e7	-0.13171731
113	0xbd86fa1a	-0.06590672
114	0xbd61e46b	-0.055149477
115	0x3d84928d	0.06473265
116	0xbd67c0b0	-0.056580245
117	0x3ce73547	0.028223647
118	0x3d5375dc	0.05162607
119	0xbd20e2d3	-0.039278816
120	0xb9c40a3a	-0.00037391653
121	0xbe07f324	-0.13276345
122	0xbda453df	-0.0802381
123	0xbd8d7e1d	-0.0690882
124	0x3cac4209	0.021027582
125	0x3d71b827	0.059013512
126	0x3d270f53	0.0407861
127	0x3db6190e	0.088914976
128	0x3da4263e	0.080151066
129	0x3e0c8f93	0.13726644
130	0xbb703dd9	-0.0036657958
131	0x3e4d841a	0.20069924
132	0x3f08d597	0.5345091
133	0x3dc4190b	0.09575089
134	0x3c2ace74	0.010425199
135	0xbd9f6fd8	-0.077850044
136	0x3c046b0b	0.008082162
137	0x3ec47439	0.3836992
138	0xbb53bb7b	-0.0032307792
139	0x3d650297	0.055910673
140	0x3c8d99d4	0.017285265
141	0xbcc37ea2	-0.023864094
142	0x3da499f0	0.08037174
143	0x3dfcae60	0.12337947
144	0xbe15fcc5	-0.14647205
145	0x3d8cd52a	0.06876595
146	0x3e4d981e	0.2007756
147	0x3e2391b0	0.15973544
148	0xbdc6a8fb	-0.09700199
149	0x3dc68ab5	0.09694425
150	0x3bccf44d	0.006254709
151	0xbd16da50	-0.036829293
152	0xbc1cbc6d	-0.009566409
153	0x3e5b1439	0.21394433
154	0x3e3c3dfd	0.18383022
155	0xbcac61cd	-0.021042729
156	0xbdd5dd1c	-0.10442564
157	0x3e099c5e	0.13438556
158	0x3cd1b7e8	0.025600389
159	0x3e4bea24	0.19913536
160	0x3cd1cb7b	0.025609722
161	0xbe3d74fb	-0.18501656
162	0x3dc414e9	0.09574301
163	0xbcd2fd5a	-0.025755573
164	0x3f346903	0.70472735
165	0x3e8091a5	0.25111118
166	0x3e17a908	0.14810574
167	0xbde23447	-0.11045127
168	0x3e0cfd7d	0.13768573
169	0x3e6da907	0.2320901
170	0x3e2d24e1	0.169086
171	0xbddf53b0	-0.10904634
172	0xbde46ed6	-0.11153953
173	0xbd08898d	-0.033334304
174	0x3ec3e372	0.38259465
175	0x3e07a58a	0.13246742
176	0xbe4ddbee	-0.20103428
177	0x3d2a632f	0.041598495
178	0xbd8a3218	-0.06747836
179	0x3d5aeb8a	0.053447284
180	0xbd222ad6	-0.039591633
181	0x3dceb3dd	0.100929
182	0x3e5a6ca6	0.21330509
183	0x3cd76ccc	0.026296996
184	0x3d82f6f0	0.06394756
185	0x3e1205cf	0.14260028
186	0x3d56a3c8	0.052402288
187	0xbd9dff75	-0.0771474
188	0xbd4a7464	-0.049427405
189	0x3e5acc18	0.21366918
190	0xbc58f199	-0.013241195
191	0x3d8944f1	0.06702603
192	0x3d0de0e0	0.034638286
193	0x3e571b68	0.21006548
194	0xb8127004	-3.4913435e-05
195	0x3e5d96e6	0.21639594
196	0x3b3bf090	0.0028677322
197	0x3b82f196	0.0039960844
198	0x3d83c565	0.064341344
199	0x3d6e8777	0.058234658
200	0xbc8c6f73	-0.017142987
201	0x3c689325	0.014195238
202	0xbcab5856	-0.020916145
203	0xbcdcfff4	-0.026977517
204	0x3d0e278a	0.034705676
205	0xbd348064	-0.044067755
206	0xbc318afc	-0.010836359
207	0x3ddbccb5	0.10732404
208	0xbd64ca74	-0.055857137
209	0xbc1e5b4f	-0.009665324
210	0xbdbbcfe6	-0.09170513
211	0xbd492803	-0.049110424
212	0x3c9920d7	0.018692417
213	0xbdadffab	-0.084960304
214	0x3ccf3f2d	0.02529868
215	0xbdffa7db	-0.12483188
216	0xbe142e2e	-0.14470741
217	0x3dc189b1	0.09450091
218	0xbe2345bd	-0.15944572
219	0x3b61c44b	0.0034449275
220	0xbd11893b	-0.035531264
221	0xbc58767a	-0.013211841
222	0xbdde8a67	-0.10866242
223	0xbd9af7e2	-0.07566811
224	0x3c880643	0.016604548
225	0x3ea0655e	0.31327337
226	0xbcb2427e	-0.021760222
227	0x3e920785	0.28521362
228	0x3b7ace17	0.0038269812
229	0xbe2c56ba	-0.16829959
230	0xbe1e8bd0	-0.15483022
231	0x3bc8d492	0.006128856
232	0xbe3fcde4	-0.18730885
233	0x3c05199e	0.008123783
234	0xbd170111	-0.03686625
235	0x3e190a2c	0.14945287
236	0xbc363876	-0.01112186
237	0xbdc95d5f	-0.09832262
238	0xbd814abc	-0.063130826
239	0x3ebc2b35	0.36751714
240	0x3c84c7a3	0.016208475
241	0x3d906792	0.070510045
242	0x3e2d9f8e	0.16955397
243	0x3e318aa5	0.17338045
244	0xbd2d727c	-0.04234551
245	0x3c295bce	0.010336829
246	0xbde0ffa8	-0.109862626
247	0x3d071a35	0.032983977
248	0xbe10fa9b	-0.14158098
249	0xbdb8bb2d	-0.09020076
250	0x3e213cc7	0.15745841
251	0x3ccf503f	0.025306819
252	0x3d291179	0.04127643
253	0xbcffce31	-0.03122625
254	0xbdb52325	-0.08844594
255	0xbb89bad2	-0.004203179

sequential/conv2d_2/Conv2D f4 [128, 3, 3, 64]
0	0xbd589b2e	-0.052882366
1	0x3d0a3925	0.033745904
2	0x3d0020c6	0.031281255
3	0x3d203593	0.039113592
4	0x3cd7db4d	0.026349688
5	0xbd643cb4	-0.055721954
6	0xbd4fcc2d	-0.050731827
7	0xbd42a5d4	-0.047521427
8	0xbbe7c82e	-0.007073424
9	0xbbb593bc	-0.005541293
10	0xbcdaae70	-0.026694506
11	0x3cc483ef	0.023988692
12	0xbd8b422c	-0.06799731
13	0xbcab6c0d	-0.020925546
14	0xbca0f8a6	-0.019649815
15	0x3d0ad727	0.03389659
16	0x3c25ec8d	0.010127199
17	0xbd4101da	-0.047120906
18	0xbc5ce3ed	-0.013482076
19	0x3d1596b4	0.036520675
20	0xbc0c16db	-0.008550371
21	0x3c1e9984	0.009680156
22	0xbc695deb	-0.014243583
23	0x3d1bca54	0.038034752
24	0xbc80a1a1	-0.01570207
25	0xbcfe241a	-0.031023074
26	0xbc158ce7	-0.009127832
27	0x3a817397	0.0009876367
28	0xbc38be3c	-0.011275824
29	0x3cd0bf6d	0.025481904
30	0x3d334510	0.043767035
31	0xbd82f403	-0.06394198
32	0xbd39fd3a	-0.04540751
33	0x3ca79a93	0.020459449
34	0xbb9210e7	-0.0044575813
35	0xbc158272	-0.009125339
36	0x3d0f81d9	0.03503594
37	0x3c69ce74	0.014270414
38	0xbadecaf7	-0.0016997744
39	0x3c0157e7	0.007894493
40	0x3d6b1d41	0.057400946
41	0xbd759733	-0.059958648
42	0xbd341833	-0.04396839
43	0xbd7d71bd	-0.061876047
44	0x3d3b499f	0.045724507
45	0xbc9536e3	-0.018214649
46	0xbd7d8aa7	-0.061899807
47	0xbd5d7ee2	-0.054076083
48	0x3c5da9a9	0.01352922
49	0x3d2d9292	0.04237611
50	0xbc4a5bf0	-0.012351021
51	0x3cc49e89	0.024001377
52	0xbd1ad05f	-0.037796374
53	0x3c1fe91e	0.009760169
54	0xbd5d2ea0	-0.053999543
55	0x3d26c9bb	0.04071973
56	0xbd5dd26f	-0.054155763
57	0xbd828924	-0.06373814
58	0xbd63ea5c	-0.055643424
59	0x3cb9f4e3	0.022699779
60	0x3d456f84	0.048202053
61	0x3cf46e4a	0.029837746
62	0xbc61db95	-0.013785263
63	0xbd3b4489	-0.045719657
64	0xbd1f1281	-0.038836006
65	0x3d244888	0.040108234
66	0x3cb28e63	0.02179641
67	0x3bbe2e18	0.0058038346
68	0xbc321da4	-0.010871325
69	0x3d46e10c	0.048554465
70	0x3cbe209e	0.023208912
71	0x3cea50db	0.028603008
72	0xbd8c9ffc	-0.06866452
73	0x3c8faa46	0.017537247
74	0x3d451b7c	0.048121914
75	0xbc4b1f1f	-0.012397557
76	0x3bf06119	0.0073357937
77	0x3a482180	0.00076343864
78	0xbc3abdf4	-0.011397827
79	0x3cb7e4d9	0.02244799
80	0x3cd00d6e	0.025397029
81	0xbd640ed7	-0.055678215
82	0xbab3b3aa	-0.001371016
83	0x3cc31fc6	0.023818862
84	0x3d3b3293	0.04570253
85	0x3d082bde	0.03324496
86	0xbd24f30a	-0.040270843
87	0x3c0a0f52	0.008426504
88	0xbd6f0789	-0.058356795
89	0xbc380a68	-0.01123295
90	0x3ceeb77f	0.029140232
91	0x3cb00c89	0.021490352
92	0xbd297fe9	-0.04138175
93	0xbcc87ff6	-0.024475079
94	0xbd0d1d25	-0.034451623
95	0xbd72009b	-0.05908261
96	0xbd5f6387	-0.054538276
97	0xbd558691	-0.052130286
98	0xbd6ea2e8	-0.05826083
99	0x3caff233	0.021477794
100	0xbd3d8547	-0.04626968
101	0x3b24b5f0	0.0025132857
102	0xbcaf7abb	-0.021420827
103	0x3d1fb4dc	0.03899084
104	0x3b1a0309	0.0023500344
105	0xbd2d01b6	-0.04223796
106	0x3d0b9948	0.034081727
107	0x3c446711	0.011987464
108	0xbc0dd423	-0.008656534
109	0xbc861a9d	-0.016370112
110	0xbc24daf5	-0.010061969
111	0xbd86b664	-0.06577757
112	0xbcea79db	-0.028622558
113	0xbcf7dc1e	-0.030256327
114	0xbc432b72	-0.011912214
115	0xbb8fcef7	-0.004388686
116	0x3d3ea51d	0.046544183
117	0xbd3a1a0c	-0.045434996
118	0xbd818cf5	-0.063257135
119	0x3ce23327	0.027612282
120	0xbd231557	-0.039815273
121	0xbc3d0fb6	-0.01153939
122	0x3d3863ec	0.045017168
123	0xbccf5962	-0.025311176
124	0x3d45d5a4	0.048299447
125	0x3d048dd5	0.032361824
126	0x3c8f5649	0.017497199
127	0x3d01e3cc	0.031711385
128	0xbd826390	-0.06366646
129	0xbc8a3f57	-0.016875906
130	0xbcb19600	-0.02167797
131	0x3ce0fd62	0.027464572
132	0xbd411ac8	-0.04714468
133	0xbd47d532	-0.048787303
134	0xbd50a5cd	-0.05093937
135	0x3cc171c2	0.023613814
136	0xbd45dbd8	-0.048305362
137	0x3a36fb62	0.0006980208
138	0x3cc5324f	0.02407184
139	0xbd243349	-0.04008797
140	0x3d05c35d	0.032657016
141	0xbc3e923e	-0.011631547
142	0xbd1fef16	-0.03904637
143	0xbc849725	-0.016185353
144	0xbb98297f	-0.0046436186
145	0x3baa61b8	0.0051996373
146	0xbd4152a6	-0.04719796
147	0xbcd87718	-0.026423976
148	0xbd690566	-0.056889914
149	0xbc81200a	-0.015762348
150	0x3cc74aba	0.024327625
151	0xbc16bd77	-0.009200445
152	0x3c831e34	0.016005613
153	0xbd4708ca	-0.048592366
154	0xbd2afd5f	-0.04174554
155	0x3d7128a3	0.058876645
156	0x3d6ebb35	0.058284003
157	0xbd29b2a1	-0.04143012
158	0x3c99cb72	0.018773768
159	0x3c10c48f	0.008835926
160	0xbcf8d5a8	-0.030375317
161	0xbd7fa600	-0.06241417
162	0xbd12a661	-0.035803203
163	0xbcee6b7e	-0.02910399
164	0xbb186638	-0.0023254286
165	0x3d04c275	0.03241201
166	0xbcafca9e	-0.02145892
167	0xbd3207c3	-0.043464433
168	0xbc134648	-0.008988924
169	0x3d209d6a	0.03921262
170	0xbcc151b1	-0.023598524
171	0x3c29f69a	0.010373736
172	0x3bf2820e	0.0074007576
173	0xbcd2f6d8	-0.02575247
174	0xbcf7986f	-0.030224053
175	0xbcb03888	-0.021511331
176	0xb9ee9fef	-0.00045514057
177	0xbd71c62e	-0.05902689
178	0x3d3489a7	0.044076588
179	0x3d0f7c7b	0.035030823
180	0xbcc651fe	-0.024209019
181	0x3b96d5c8	0.0046031214
182	0xbba4a01e	-0.0050239703
183	0xbc08d1d3	-0.008350807
184	0x3c444796	0.011979958
185	0x3d2b1e89	0.041777167
186	0x3c2ffe03	0.010741713
187	0x3c778577	0.015107504
188	0xbce115c5	-0.0274762
189	0x3d120b7d	0.035655487
190	0xbc66f696	-0.014096877
191	0x3d45bd26	0.04827609
192	0xbd7324ef	-0.059361394
193	0x3cd9a719	0.026568936
194	0x3cb24080	0.021759272
195	0xbc875c20	-0.01652342
196	0xbd525e24	-0.05135931
197	0xbbf93499	-0.007605147
198	0x3ce298a8	0.027660683
199	0xbcc66eca	-0.02422275
200	0x3d32c78a	0.043647327
201	0x3b1477fa	0.002265452
202	0xbc34aa66	-0.011026954
203	0x3d2ac41b	0.041690927
204	0x3ce31366	0.02771921
205	0x3cf47d54	0.029844917
206	0xbd2d6c24	-0.04233946
207	0x3c7acfbd	0.015308318
208	0xbd0a1334	-0.03370972
209	0xbafb999e	-0.0019195562
210	0x3ca448f1	0.020054312
211	0xbccb3c9d	-0.024809176
212	0xbb4c7caf	-0.0031202247
213	0xbd1ea64d	-0.038732816
214	0xbd6006e0	-0.054694057
215	0xbc665b88	-0.014059909
216	0xbcb36759	-0.021899866
217	0xbbddc010	-0.0067672804
218	0xbadf9ad0	-0.0017059688
219	0xbb5ef5f6	-0.0034021116
220	0x3c9220c6	0.017837893
221	0xbd0087b2	-0.03137941
222	0xbbe2c6f3	-0.0069206893
223	0x3c81a402	0.015825275
224	0xbd881e62	-0.0664642
225	0xbd5c84e4	-0.053837672
226	0x3cf2640b	0.02958872
227	0xbc5c5fbb	-0.013450558
228	0xbba8ac28	-0.0051474757
229	0x3c2f998c	0.010717761
230	0x3be1ba32	0.0068886513
231	0x3d2e74e4	0.042591944
232	0xbbec19ec	-0.0072052386
233	0x3d3b66b0	0.045752227
234	0xbc00d31d	-0.007862833
235	0x3ccdc75e	0.02511948
236	0x3d0403bb	0.03223012
237	0xbd560fec	-0.052261278
238	0xbbc69c2c	-0.0060610976
239	0x3cfe92dc	0.031075887
240	0xbb37662d	-0.0027984485
241	0x3cf959ee	0.03043839
242	0xbd0ffcb8	-0.03515312
243	0xbd317e27	-0.0433332
244	0x3c3e9dfd	0.011634347
245	0x3bc90893	0.0061350553
246	0xbd73193b	-0.059350234
247	0xbd7e3d1f	-0.06207001
248	0xbc1c1f63	-0.009528968
249	0x3ca8d592	0.02060965
250	0x3d46e0d0	0.04855424
251	0xbcb2e99d	-0.021839911
252	0xbcd98094	-0.026550569
253	0xbd3e17d0	-0.046409428
254	0x3b3d27e6	0.0028862893
255	0xbb9098e2	-0.0044127563

sequential/dense/BiasAdd/ReadVariableOp f4 [128]
0	0xbc39d439	-0.011342102
1	0xbc8676f1	-0.016414138
2	0x3c7cf699	0.015439653
3	0xbcd224d8	-0.025652334
4	0x3d46bf14	0.04852207
5	0xbcb9c338	-0.022676095
6	0xbba506fe	-0.005036234
7	0xbca546f5	-0.020175437
8	0x3c506031	0.012718246
9	0x3bde3220	0.0067808777
10	0x3c3ab71d	0.011396197
11	0xbcabea04	-0.02098561
12	0x3d151e62	0.03640593
13	0x3c967e8d	0.018370891
14	0xbc8793f7	-0.016550047
15	0xbd1836c0	-0.03716159
16	0xbd322c0a	-0.04349903
17	0x3d6e9ab5	0.05825301
18	0xbbfd3014	-0.0077266786
19	0xbca0c724	-0.019626208
20	0xbc7b7e41	-0.0153499255
21	0x3dc15067	0.09439164
22	0x3ccf9e64	0.025344081
23	0xbcda2fb3	-0.026634073
24	0xbc9b5648	-0.01896204
25	0xbc0d363f	-0.00861889
26	0x3b150536	0.0022738702
27	0xbbf9c674	-0.0076225344
28	0xbd30deeb	-0.04318134
29	0x3d9d86d8	0.07691735
30	0xbc07c5ec	-0.008286934
31	0xbc827d29	-0.015928822
32	0xbd5adb59	-0.053431842
33	0xbc91ee4e	-0.017813828
34	0xbc57a730	-0.013162419
35	0x3dd7e1ca	0.10541113
36	0xbc70aadd	-0.0146891745
37	0xbd959c88	-0.073052466
38	0xbcad586a	-0.021160323
39	0x3d715c3b	0.05892585
40	0x3d8d4f23	0.0689986
41	0xbc9dfae8	-0.01928468
42	0xbca7967e	-0.020457502
43	0xbc03e61e	-0.00805047
44	0xbc4e9ccc	-0.0126106255
45	0x3d7fa8d4	0.062416866
46	0x3ca69c76	0.020338278
47	0x3d8bc3ed	0.06824479
48	0xbcd5ff9f	-0.026122866
49	0xbc27d158	-0.0102427825
50	0x3d18be06	0.037290595
51	0x3c3075e6	0.010770297
52	0x3b55ad1c	0.0032604402
53	0xbca99fa3	-0.020706004
54	0xbd2b17f1	-0.04177088
55	0x3d3fb2dd	0.046801437
56	0xbc13f07b	-0.009029503
57	0xbcbd49c8	-0.02310647
58	0xbc91b3f6	-0.017786007
59	0x3ced4180	0.028961897
60	0xbc544268	-0.012955286
61	0x389559f0	7.121626e-05
62	0x3d5e7319	0.054308984
63	0xbc62b1d4	-0.013836343
64	0xbd360f9f	-0.04444849
65	0xbcfa55dc	-0.030558519
66	0xbd129a33	-0.035791587
67	0x3c50a6c7	0.012735075
68	0xbbc1f69b	-0.0059192902
69	0xbc99f270	-0.018792361
70	0xbc7c7508	-0.015408762
71	0x3d6a2ec2	0.057173498
72	0x3cf64440	0.030061841
73	0x3c274323	0.010208878
74	0xbd02dcbf	-0.0319488
75	0x3d077c92	0.033077784
76	0x3bb9fc4a	0.005675827
77	0x3c6c5af5	0.014425983
78	0xbd6af80d	-0.057365466
79	0x3d316787	0.043311622
80	0xbbbb410a	-0.0057145404
81	0x3c578e84	0.013156537
82	0xbca71aa0	-0.020398438
83	0xbc5614bb	-0.013066466
84	0xbc9477da	-0.018123556
85	0xbd29a5dd	-0.041417945
86	0xbc977396	-0.018487733
87	0xbc12e382	-0.008965375
88	0x3cd986ed	0.026553595
89	0x3d099b77	0.03359553
90	0x3cd9ee7c	0.026602976
91	0xbcb321cb	-0.0218667
92	0xbc8a3cae	-0.016874637
93	0xbc31762f	-0.0108314
94	0x3d85bd32	0.06530227
95	0xbc0b7c31	-0.008513496
96	0x3bccac48	0.0062461235
97	0x3cb5b350	0.02218023
98	0x3d1e684e	0.03867369
99	0xbbcfc824	-0.0063409973
100	0x3d7235f5	0.05913349
101	0xbd941e7d	-0.07232378
102	0x3d2239d0	0.039605916
103	0x3cfff548	0.031244889
104	0xbc7eb5c4	-0.015546266
105	0x3d4b79ce	0.04967671
106	0xbd164009	-0.036682162
107	0x3c77175a	0.015081251
108	0xbc85b8dc	-0.0163235
109	0x3cb9fb7e	0.022702929
110	0xbd0c5054	-0.034256294
111	0xbc7a0218	-0.015259288
112	0xbc0c1fd1	-0.0085525075
113	0xbcc895f6	-0.02448557
114	0xbc1d212b	-0.009590427
115	0xb9b011d1	-0.0003358261
116	0x3d6248b2	0.05524511
117	0x3b8c3fbd	0.004280059
118	0x3d3362fc	0.04379557
119	0xbb36bd51	-0.0027883837
120	0x3d8260ca	0.06366117
121	0x3dbc879e	0.092055544
122	0xbccc4c19	-0.02493863
123	0xbc12c8ab	-0.008958976
124	0x3d6fcbee	0.058544092
125	0xbccfa75b	-0.025348356
126	0xbcbc0d4a	-0.022955555
127	0x3d564abe	0.052317373

sequential/dense_1/BiasAdd/ReadVariableOp f4 [26]
0	0xbbead0e4	-0.007166015
1	0xbd0507fc	-0.032478318
2	0x3d294afe	0.041331284
3	0xbd19e2f2	-0.037569948
4	0x3cb4775f	0.022029577
5	0x3c392d26	0.011302268
6	0x3dc1c485	0.09461311
7	0x3d661f5d	0.056182254
8	0xbcb5c901	-0.022190573
9	0xbda40311	-0.08008397
10	0x3d217ce9	0.039425764
11	0x3d7a7684	0.06114818
12	0xbc70ea76	-0.014704337
13	0xbccb0623	-0.0247832
14	0xbdecfe9c	-0.115720004
15	0x3b8c7f90	0.0042876676
16	0xbd5e70b1	-0.05430669
17	0xbcea1cbb	-0.028578153
18	0x3c8fb89e	0.017544087
19	0x3baab5ac	0.0052096453
20	0x3a3e09ea	0.0007249402
21	0xb7b8d63c	-2.203427e-05
22	0xba8ce842	-0.001075037
23	0xbce4faf9	-0.027951704
24	0x3df4a0b6	0.11944716
25	0xbd7f4f4d	-0.062331486

sequential/dense/MatMul f4 [128, 512]
0	0x092454d2	1.9780664e-33
1	0x0966322f	2.770884e-33
2	0x333374bc	4.1782855e-08
3	0x08ff1cb8	1.5354006e-33
4	0x3d981e98	0.0742771
5	0x3daf5026	0.08560209
6	0x892fc8fa	-2.1159357e-33
7	0x3df81ba8	0.1211465
8	0x3d8ee153	0.06976571
9	0x3cfe9d8c	0.031080984
10	0x3c46f38e	0.012143029
11	0xbd565617	-0.052328195
12	0xbcaf033c	-0.021363847
13	0xbd44f93c	-0.04808925
14	0x3d9149f2	0.07094182
15	0xba827d62	-0.000995558
16	0xbb31fb6f	-0.0027157923
17	0x3d40dedd	0.04708754
18	0xbd387634	-0.045034602
19	0xad737885	-1.38397115e-11
20	0x3db806e7	0.089856915
21	0x097839eb	2.9879147e-33
22	0xae7b30f4	-5.711427e-11
23	0x3c65da9a	0.014029169
24	0x3af44bdc	0.001863833
25	0xb1c2fdfa	-5.675017e-09
26	0x3d9fc9fc	0.07802197
27	0x3dec0b18	0.115255535
28	0x3d3dbc16	0.04632195
29	0x3daf10c9	0.085481234
30	0x881b9714	-4.6821207e-34
31	0xbd161664	-0.036642447
32	0xbd769439	-0.06019995
33	0xbc858f7a	-0.016303767
34	0x3d8d3240	0.0689435
35	0xbc19bacd	-0.009382916
36	0x2bf53cda	1.7425187e-12
37	0x3c3d4772	0.011552678
38	0xbd7c3ce9	-0.061581526
39	0x3dead09e	0.11465572
40	0x3d201a20	0.039087415
41	0x3c253997	0.010084531
42	0x3df0971f	0.11747574
43	0x09799002	3.0039997e-33
44	0xa7b3d188	-4.9909655e-15
45	0xbcbcc0d9	-0.023041176
46	0x89e22558	-5.444264e-33
47	0x3de38e45	0.1111112
48	0x08c8f9a4	1.2095752e-33
49	0x090bd99e	1.683384e-33
50	0xbd13a028	-0.03604141
51	0x126e57ea	7.520792e-28
52	0xbd691d4d	-0.05691271
53	0x3d5cdd2f	0.053921875
54	0x3d585929	0.052819405
55	0x09034c26	1.5804356e-33
56	0xbd90693d	-0.070513226
57	0xbdc22fc3	-0.09481766
58	0x3d93ced5	0.072171845
59	0x93074804	-1.7074902e-27
60	0x89ede9d8	-5.727558e-33
61	0x896b0a7b	-2.8292024e-33
62	0x30c52004	1.4342736e-09
63	0xbc15177d	-0.009099838
64	0xbd39417b	-0.045228463
65	0xbc0047e7	-0.007829643
66	0xa214144c	-2.0068485e-18
67	0x3d758e7e	0.059950344
68	0x3394921c	6.918364e-08
69	0xbc8f4d7c	-0.017493002
70	0x0898a1e8	9.186231e-34
71	0x3c074272	0.008255588
72	0x3d75a449	0.059971128
73	0x3be7e790	0.007077165
74	0x3e300579	0.17189588
75	0x3df0086c	0.11720356
76	0x3e0c44ed	0.13698168
77	0x3b96c850	0.004601516
78	0x89c295dc	-4.684473e-33
79	0xbd0fa82b	-0.035072487
80	0x894466a4	-2.3640903e-33
81	0x3e05e839	0.13076867
82	0xbd9ec3c7	-0.07752185
83	0x3b2eed17	0.002669161
84	0x3b2782c0	0.002556011
85	0x36b8ec6f	5.511152e-06
86	0x8975a6f1	-2.9569298e-33
87	0xbd809ccc	-0.06279907
88	0x3c6531ed	0.013988954
89	0xbae1f947	-0.0017240428
90	0xbb84ea64	-0.004056262
91	0x360856c5	2.0316086e-06
92	0x3a188044	0.0005817453
93	0x05abe560	1.6165022e-35
94	0x369997e7	4.577439e-06
95	0x09ded37c	5.3643435e-33
96	0x3c0a5070	0.008442029
97	0x3d0e7878	0.034782857
98	0xbc96caaa	-0.018407185
99	0x3dd03004	0.10165408
100	0x89eaedcf	-5.6557085e-33
101	0xbcbce08a	-0.023056287
102	0x3d99c8dc	0.07509014
103	0x0939fe43	2.2388118e-33
104	0x347347e6	2.2657295e-07
105	0x084c9d30	6.157379e-34
106	0x88ec6160	-1.4226626e-33
107	0xb511030b	-5.402114e-07
108	0x08ad70be	1.0438564e-33
109	0x3ae18d68	0.001720828
110	0x099cddf0	3.7764343e-33
111	0xbd027198	-0.031846613
112	0x095bdcf4	2.6465058e-33
113	0xbd0aa2de	-0.03384673
114	0xbd5a3cd7	-0.053280678
115	0x3d1a9053	0.037735295
116	0x3d356885	0.04428913
117	0x3c3d8cfd	0.011569259
118	0x3dc32960	0.09529376
119	0x3e1dc69e	0.15407798
120	0xbc650de2	-0.013980361
121	0x3d76bac5	0.06023671
122	0x3deef3b4	0.116675764
123	0x37f62380	2.9342016e-05
124	0xbd0312d2	-0.03200037
125	0xb9e89c5c	-0.00044366985
126	0xb8c0d983	-9.195788e-05
127	0x3d37ee82	0.044905193
128	0x09be5a66	4.5825846e-33
129	0x899bdcfb	-3.75227e-33
130	0x38e3e705	0.00010867234
131	0x09acad33	4.157037e-33
132	0x3d597dfb	0.05309866
133	0x3d7555bc	0.059896216
134	0x09dfe978	5.390485e-33
135	0xbd8fea84	-0.07027152
136	0x3d89fef1	0.06738079
137	0x3c8ddb94	0.017316617
138	0x3af91768	0.0019004168
139	0x3e2a40db	0.16626303
140	0xbc682e5d	-0.01417121
141	0x3d6bac01	0.057537083
142	0x3d2e4283	0.0425439
143	0xbc87d19f	-0.016579447
144	0xbab0df7b	-0.0013494337
145	0xbcf66b13	-0.030080354
146	0x3d916f00	0.0710125
147	0x1eb6dab9	1.9360461e-20
148	0x3da4d264	0.08047941
149	0x89ef48ba	-5.760555e-33
150	0x2f42108e	1.7650079e-10
151	0xbe00a30a	-0.12562194
152	0x3ca3e73f	0.020007728
153	0x2bd8f0eb	1.5414591e-12
154	0xbd809ef2	-0.062803164
155	0x3dcd7650	0.10032332
156	0xbc95c701	-0.018283369
157	0xbd73dc6f	-0.059536394
158	0x1d88094b	3.600851e-21
159	0x3d0a5e0d	0.0337811
160	0xbdc5b7f1	-0.09654225
161	0x3d0ee7f0	0.03488916
162	0xbc13e072	-0.00902568
163	0x3d750cb6	0.059826575
164	0x1923d2ae	8.469449e-24
165	0x3d707f29	0.05871502
166	0x3df42772	0.11921586
167	0x3df310a0	0.11868405
168	0xbc5ffc4b	-0.013670991
169	0xbe0dd5c2	-0.13851073
170	0x3d5de2ae	0.054171257
171	0x8997d1ad	-3.6549106e-33
172	0x283598ee	1.008068e-14
173	0xbd383fc9	-0.044982705
174	0x89f4a786	-5.88984e-33
175	0xbda7763f	-0.081768505
176	0x09f4c4c9	5.892592e-33
177	0x89c60427	-4.767067e-33
178	0x3d8a7046	0.06759696
179	0x20c6c349	3.3671734e-19
180	0x3e296b62	0.1654487
181	0x3d90a90e	0.070634946
182	0x3d7021d5	0.058626015
183	0x09d7e4a2	5.1974373e-33
184	0x3e237015	0.15960725
185	0x3dd63262	0.104588285
186	0x3dd91482	0.10599615
187	0x1b808e7d	2.1267905e-22
188	0x88f7909a	-1.4899767e-33
189	0x09926d3d	3.525095e-33
190	0x09078d34	1.6316427e-33
191	0xbca261e3	-0.019822067
192	0x3d84a0c3	0.06475975
193	0xbd9a6f2f	-0.07540738
194	0x346639da	2.1441465e-07
195	0xbc5feafa	-0.013666863
196	0xb3006838	-2.989711e-08
197	0x3d3b53ad	0.045734096
198	0x89d4ca14	-5.1227177e-33
199	0xbd41a639	-0.047277663
200	0x3de70357	0.11279934
201	0xbcc77d09	-0.024351614
202	0x3e15fa7d	0.14646335
203	0x3cd28a7e	0.025700804
204	0xbd4aefd5	-0.049545128
205	0x3d81837a	0.06323905
206	0x88e093a4	-1.351622e-33
207	0xbd1b25df	-0.037877914
208	0x09f44f28	5.88153e-33
209	0xbd1354c6	-0.035969518
210	0x3e486faa	0.19573846
211	0x3ab9ae32	0.0014166294
212	0x3d80f58d	0.06296835
213	0x394d044c	0.00019551924
214	0x08629730	6.818712e-34
215	0x3dddc1c4	0.108279735
216	0xbc0147c7	-0.007890648
217	0xb8c50b6c	-9.3958195e-05
218	0xbc4abade	-0.012373654
219	0x32abf754	2.0019492e-08
220	0xbd1a78c5	-0.03771283
221	0x89c8cd93	-4.834157e-33
222	0x3747d75a	1.1911465e-05
223	0x0871cabc	7.2761613e-34
224	0x3da24112	0.079225674
225	0x3dc87c42	0.09789325
226	0x3d0ee74b	0.034888547
227	0xbc9a15cc	-0.018809222
228	0x884c28c6	-6.1436946e-34
229	0x3ac35314	0.0014902079
230	0x3d9899a9	0.07451183
231	0x092e47b9	2.0978212e-33
232	0x08e01b90	1.34879895e-33
233	0x8991daaa	-3.511311e-33
234	0x0d223ea6	4.9995514e-31
235	0xb35de949	-5.1667744e-08
236	0x893c37c6	-2.2655901e-33
237	0x3e341c0d	0.17588826
238	0x3945edc4	0.00018875959
239	0xbc03d2ec	-0.008045893
240	0x1ef18490	2.5571694e-20
241	0xbcf8d15a	-0.030373264
242	0xbd6dcec7	-0.058058526
243	0x3c0e4920	0.008684427
244	0xbd134b9a	-0.03596077
245	0x3d24ffee	0.040283136
246	0x3c31b63c	0.010846671
247	0x3deafc36	0.11473887
248	0x3ccd1763	0.025035566
249	0xbc98af5a	-0.018638302
250	0x3d152305	0.03641035
251	0x33b9ec1d	8.6576826e-08
252	0x3d1e678a	0.03867296
253	0xbdc985a3	-0.09839942
254	0xa9970052	-6.7058026e-14
255	0x3e08a18d	0.13342877

sequential/dense_1/MatMul f4 [26, 128]
0	0xbe184d41	-0.1487322
1	0x3d53e45e	0.05173146
2	0x3c21bd49	0.009871789
3	0xbd42ee95	-0.04759081
4	0xbe80fb8e	-0.2519192
5	0xbeab89ee	-0.3350367
6	0xbe430821	-0.1904607
7	0xbc9dd9f6	-0.019268971
8	0x3db6b9f3	0.08922186
9	0x3e1a8687	0.1509038
10	0x3d0a5086	0.0337682
11	0xbd87b1f5	-0.066257395
12	0x3e45a985	0.19302948
13	0x3e702e9f	0.23455285
14	0x3e921666	0.28532714
15	0xbe16d974	-0.1473139
16	0xbe4cd0f1	-0.2000158
17	0xbda5350c	-0.080667585
18	0x3d896e2a	0.06710465
19	0x3e047228	0.12934172
20	0xbe21a566	-0.15785751
21	0x3d8fd0f1	0.07022274
22	0xbd53b7cb	-0.05168895
23	0xbe757d6a	-0.23973623
24	0xbdf577f7	-0.11985772
25	0x3c76fb98	0.015074633
26	0xbe57fa1b	-0.21091501
27	0xbe08e953	-0.13370256
28	0x3e431692	0.19051579
29	0xbdfc2b9a	-0.12313004
30	0x3e15c0af	0.14624284
31	0xbd2da299	-0.042391393
32	0x3e711ff2	0.23547342
33	0xbd325f40	-0.04354787
34	0x3e7c5aae	0.24643967
35	0xbe861731	-0.2618957
36	0xbe15011f	-0.14551209
37	0xbeb6d67e	-0.3571052
38	0xbd8751bb	-0.06607386
39	0xbdf4a178	-0.1194486
40	0xbb2c40ab	-0.0026283662
41	0x3d2fb0ca	0.04289321
42	0xbdb40eee	-0.0879191
43	0xbdfc4d84	-0.123194724
44	0xbd701832	-0.058616824
45	0xbe0c827a	-0.13721648
46	0x3df90783	0.12159636
47	0xbdf37785	-0.11888031
48	0x3d583fa2	0.05279506
49	0xbe3edaae	-0.18638107
50	0x3e602c59	0.21891917
51	0xbe8d53bb	-0.27602944
52	0xbe96310f	-0.29334304
53	0xbe19bb7c	-0.15012926
54	0x3df39ce7	0.11895161
55	0xbd5b7bbc	-0.0535848
56	0x3db0fb96	0.08641736
57	0x3e298208	0.16553509
58	0xbd092c56	-0.033489548
59	0xbecb71c8	-0.39735246
60	0x3e4c3470	0.19941878
61	0xbe178c38	-0.14799583
62	0xbe89801c	-0.26855552
63	0x3e229cb5	0.15880091
64	0xbdbf34c5	-0.09336237
65	0x3dff9acb	0.12480696
66	0x3e054c19	0.1301731
67	0x3cb0640d	0.021532083
68	0x3e7187df	0.23586987
69	0xbd58a7bd	-0.052894343
70	0xbe714ffe	-0.23565671
71	0x3c3a9e37	0.01139026
72	0xbe6d2cc3	-0.23161606
73	0x3d9f0750	0.077650666
74	0x3d0167c3	0.031593096
75	0x3e49b222	0.19696859
76	0xbdcaddf7	-0.09905618
77	0xbe702aa9	-0.23453774
78	0x3e208fd1	0.15679862
79	0xbeb469e9	-0.35237053
80	0xbd9947d9	-0.07484407
81	0xbd3b0da4	-0.045667306
82	0xbe3bf3cf	-0.18354724
83	0x3dbaa7ed	0.091140606
84	0x3c90a5d0	0.01765719
85	0x3e8458c7	0.25848982
86	0xbce9ae77	-0.028525574
87	0x3bb54f9e	0.0055331727
88	0xbd24b05e	-0.04020726
89	0xbcdab215	-0.026696244
90	0xbdca0905	-0.098650016
91	0x3d21093c	0.039315447
92	0xbdf2959d	-0.11844943
93	0xbd7990e7	-0.060929205
94	0xbdfdf58e	-0.124003515
95	0x3e0fbfd3	0.14038019
96	0xbe4711d4	-0.19440395
97	0xbea12624	-0.3147441
98	0x3da40c4e	0.080101594
99	0xbde5918d	-0.11209402
100	0xbe244c9e	-0.16044852
101	0xbdaebbaf	-0.085318916
102	0x3d0a832b	0.033816498
103	0x3da00abe	0.07814549
104	0xbda9a429	-0.08283264
105	0x3de8d7f9	0.113693185
106	0xbdcd5613	-0.10026183
107	0x3d7ffaab	0.062494915
108	0x3e572f40	0.21014118
109	0xbd81a664	-0.063305646
110	0x3e2e9672	0.17049578
111	0xbdafc705	-0.08582882
112	0x3dba5bb9	0.09099526
113	0xbc838ae2	-0.016057435
114	0x3e14c97d	0.14529987
115	0x3e0740c0	0.13208294
116	0x3e4c1ea2	0.1993356
117	0xbe0144ae	-0.12623855
118	0xbe709eed	-0.23498125
119	0x3e14f60a	0.14546981
120	0xbe196ed8	-0.1498369
121	0x3ca4e93d	0.020130748
122	0xbe5adf0a	-0.21374145
123	0xbe3054e8	-0.17219889
124	0x3e8ab28c	0.27089345
125	0xbe98b22c	-0.29823434
126	0xbdad12ce	-0.08450852
127	0xbe9a9212	-0.30189568
128	0xbd875b96	-0.066092655
129	0x3e45b0ab	0.19305675
130	0xbdd1aaa0	-0.10237622
131	0x3ea8fa31	0.3300338
132	0x3bf35806	0.0074262647
133	0x3dd95752	0.10612358
134	0x3d6e8e90	0.058241427
135	0x3e08d10a	0.13360992
136	0x3e3c57f3	0.18392925
137	0x3dd93bd9	0.10607118
138	0xbe10da09	-0.14145674
139	0x3e14f30f	0.14545844
140	0xbd3d717d	-0.04625081
141	0x3dc4dacd	0.096120454
142	0xbe287e46	-0.1645442
143	0xbd63cb03	-0.05561353
144	0x3d8edc9f	0.06975674
145	0x3e6b3028	0.22967589
146	0xbe140124	-0.1445356
147	0x3d16c0b8	0.036804885
148	0x3d7c3efa	0.061583497
149	0xbda654fa	-0.08121677
150	0x3dc208ba	0.09474321
151	0xbe8557d5	-0.26043573
152	0xbe270e08	-0.16313946
153	0x3c9fff59	0.019530939
154	0xbe83f1fc	-0.25770557
155	0x3b443fba	0.002994521
156	0x3d943630	0.07236898
157	0x3d36cfa1	0.044631604
158	0x3e093e2b	0.13402621
159	0xbda05a83	-0.07829764
160	0xbc4ba30f	-0.012429013
161	0xbe8f54e1	-0.27994445
162	0x3b289abe	0.0025727
163	0xbe2edb6b	-0.17075889
164	0x3cfb178c	0.030650876
165	0x3e55a529	0.20863785
166	0x3e0a88f9	0.13528813
167	0xbd8efba5	-0.06981591
168	0xbcc7d745	-0.02439464
169	0xbe37430a	-0.17896667
170	0x3db171dd	0.08664296
171	0xbd3a74b6	-0.04552146
172	0xbdefe50c	-0.11713609
173	0x3e1b7dc4	0.15184695
174	0xbe4cb90d	-0.19992466
175	0x3d51c51b	0.051213365
176	0xbc42563b	-0.011861379
177	0x3e3d85ef	0.18508123
178	0x3cf0424b	0.029328486
179	0xbe3d9ac1	-0.18516065
180	0xbe7fdb22	-0.24985936
181	0x3d90dda7	0.07073527
182	0x3e0840ea	0.13306013
183	0x3bdf33d3	0.006811598
184	0x3d968d42	0.073511615
185	0x3daea678	0.08527845
186	0x3c2d9631	0.01059489
187	0xbdc15a2e	-0.094410285
188	0xbdd8b20e	-0.10580836
189	0xbd542c04	-0.05179979
190	0x3e50a609	0.20375837
191	0xbe3469bb	-0.17618458
192	0xbe0eb5bd	-0.13936515
193	0xbdf17765	-0.11790351
194	0xbe5c7fda	-0.21533147
195	0xbeb4f38b	-0.3534206
196	0x3e7df15d	0.24799104
197	0x3df842b6	0.12122099
198	0xbec1e67d	-0.3787116
199	0xbd662d13	-0.05619533
200	0x3d18836c	0.03723471
201	0x3e54bca3	0.20775084
202	0xbe0db4cf	-0.13838504
203	0xbea6e4b8	-0.32596374
204	0xbe416377	-0.18885599
205	0xbe98579d	-0.29754344
206	0xbc511111	-0.012760417
207	0x3d59f6c8	0.053213865
208	0xbe41de8a	-0.18932548
209	0x3d347bac	0.044063255
210	0x3dabf49d	0.08396266
211	0x3d43564b	0.047689717
212	0x3dde25ad	0.1084703
213	0x3d3993d3	0.04530699
214	0x3e38ecdb	0.18059103
215	0xbe04b75d	-0.12960573
216	0xbe860b24	-0.26180375
217	0x3df39cda	0.118951514
218	0x3dd36730	0.10322416
219	0xbbdda634	-0.0067641977
220	0x3dabb083	0.08383276
221	0x3e3f1427	0.18660031
222	0xbd03049f	-0.03198683
223	0xbe36b685	-0.17843063
224	0x3dd6c654	0.10487047
225	0x3d61921e	0.05507099
226	0x3dd8d078	0.10586637
227	0x3dab19d9	0.083545394
228	0xbde87512	-0.113504544
229	0x3e34972a	0.1763579
230	0xbe24cd55	-0.16093953
231	0xbdfe53dd	-0.124183394
232	0xbdadae5d	-0.08480523
233	0x3e21786c	0.15768594
234	0xbdc885bd	-0.097911336
235	0xbe037d69	-0.12840809
236	0xbe41c498	-0.18922651
237	0x3db89c27	0.09014159
238	0xbbe67eea	-0.0070341723
239	0x3d5ae5ee	0.053441934
240	0x3d0308e3	0.031990897
241	0x3eaf2dd7	0.3421466
242	0xbdf37f2b	-0.1188949
243	0x3dbf3340	0.09335947
244	0x3d410f04	0.04713346
245	0xbe26b610	-0.16280389
246	0xbdc4f48e	-0.096169576
247	0x3d7cf0b4	0.06175299
248	0xbd491ca2	-0.049099572
249	0xbd656410	-0.05600363
250	0x3df3c578	0.119028986
251	0x3e564f24	0.20928627
252	0x3e0fdba6	0.14048633
253	0x3e335145	0.1751147
254	0xbc207117	-0.009792588
255	0xbe0029dc	-0.12515968
